…
(LOW         ) IterTimerHook                      
 -------------------- 
after_val_epoch:
(VERY_LOW    ) TextLoggerHook                     
 -------------------- 
after_run:
(VERY_LOW    ) TextLoggerHook                     
 -------------------- 
2023-03-09 01:51:04,521 - mmseg - INFO - workflow: [('train', 1)], max: 320000 iters
2023-03-09 01:51:04,521 - mmseg - INFO - Checkpoints will be saved to /cta/users/emir/dev/ViT_Segmentation/segViT/output by HardDiskBackend.
cuda
EncoderDecoder(
  (backbone): VisionTransformer(
    (patch_embed): PatchEmbed(
      (adap_padding): AdaptivePadding()
      (projection): Conv2d(3, 768, kernel_size=(16, 16), stride=(16, 16))
    )
    (drop_after_pos): Dropout(p=0.0, inplace=False)
    (layers): ModuleList(
      (0): TransformerEncoderLayer(
        (ln1): LayerNorm((768,), eps=1e-06, elementwise_affine=True)
        (attn): MultiheadAttention(
          (attn): MultiheadAttention(
            (out_proj): NonDynamicallyQuantizableLinear(in_features=768, out_features=768, bias=True)
          )
          (proj_drop): Dropout(p=0.0, inplace=False)
          (dropout_layer): Dropout(p=0.0, inplace=False)
        )
        (ln2): LayerNorm((768,), eps=1e-06, elementwise_affine=True)
        (ffn): FFN(
          (activate): GELU(approximate='none')
          (layers): Sequential(
            (0): Sequential(
              (0): Linear(in_features=768, out_features=3072, bias=True)
              (1): GELU(approximate='none')
              (2): Dropout(p=0.0, inplace=False)
            )
            (1): Linear(in_features=3072, out_features=768, bias=True)
            (2): Dropout(p=0.0, inplace=False)
          )
          (dropout_layer): Identity()
        )
      )
      (1): TransformerEncoderLayer(
        (ln1): LayerNorm((768,), eps=1e-06, elementwise_affine=True)
        (attn): MultiheadAttention(
          (attn): MultiheadAttention(
            (out_proj): NonDynamicallyQuantizableLinear(in_features=768, out_features=768, bias=True)
          )
          (proj_drop): Dropout(p=0.0, inplace=False)
          (dropout_layer): Dropout(p=0.0, inplace=False)
        )
        (ln2): LayerNorm((768,), eps=1e-06, elementwise_affine=True)
        (ffn): FFN(
          (activate): GELU(approximate='none')
          (layers): Sequential(
            (0): Sequential(
              (0): Linear(in_features=768, out_features=3072, bias=True)
              (1): GELU(approximate='none')
              (2): Dropout(p=0.0, inplace=False)
            )
            (1): Linear(in_features=3072, out_features=768, bias=True)
            (2): Dropout(p=0.0, inplace=False)
          )
          (dropout_layer): DropPath()
        )
      )
      (2): TransformerEncoderLayer(
        (ln1): LayerNorm((768,), eps=1e-06, elementwise_affine=True)
        (attn): MultiheadAttention(
          (attn): MultiheadAttention(
            (out_proj): NonDynamicallyQuantizableLinear(in_features=768, out_features=768, bias=True)
          )
          (proj_drop): Dropout(p=0.0, inplace=False)
          (dropout_layer): Dropout(p=0.0, inplace=False)
        )
        (ln2): LayerNorm((768,), eps=1e-06, elementwise_affine=True)
        (ffn): FFN(
          (activate): GELU(approximate='none')
          (layers): Sequential(
            (0): Sequential(
              (0): Linear(in_features=768, out_features=3072, bias=True)
              (1): GELU(approximate='none')
              (2): Dropout(p=0.0, inplace=False)
            )
            (1): Linear(in_features=3072, out_features=768, bias=True)
            (2): Dropout(p=0.0, inplace=False)
          )
          (dropout_layer): DropPath()
        )
      )
      (3): TransformerEncoderLayer(
        (ln1): LayerNorm((768,), eps=1e-06, elementwise_affine=True)
        (attn): MultiheadAttention(
          (attn): MultiheadAttention(
            (out_proj): NonDynamicallyQuantizableLinear(in_features=768, out_features=768, bias=True)
          )
          (proj_drop): Dropout(p=0.0, inplace=False)
          (dropout_layer): Dropout(p=0.0, inplace=False)
        )
        (ln2): LayerNorm((768,), eps=1e-06, elementwise_affine=True)
        (ffn): FFN(
          (activate): GELU(approximate='none')
          (layers): Sequential(
            (0): Sequential(
              (0): Linear(in_features=768, out_features=3072, bias=True)
              (1): GELU(approximate='none')
              (2): Dropout(p=0.0, inplace=False)
            )
            (1): Linear(in_features=3072, out_features=768, bias=True)
            (2): Dropout(p=0.0, inplace=False)
          )
          (dropout_layer): DropPath()
        )
      )
      (4): TransformerEncoderLayer(
        (ln1): LayerNorm((768,), eps=1e-06, elementwise_affine=True)
        (attn): MultiheadAttention(
          (attn): MultiheadAttention(
            (out_proj): NonDynamicallyQuantizableLinear(in_features=768, out_features=768, bias=True)
          )
          (proj_drop): Dropout(p=0.0, inplace=False)
          (dropout_layer): Dropout(p=0.0, inplace=False)
        )
        (ln2): LayerNorm((768,), eps=1e-06, elementwise_affine=True)
        (ffn): FFN(
          (activate): GELU(approximate='none')
          (layers): Sequential(
            (0): Sequential(
              (0): Linear(in_features=768, out_features=3072, bias=True)
              (1): GELU(approximate='none')
              (2): Dropout(p=0.0, inplace=False)
            )
            (1): Linear(in_features=3072, out_features=768, bias=True)
            (2): Dropout(p=0.0, inplace=False)
          )
          (dropout_layer): DropPath()
        )
      )
      (5): TransformerEncoderLayer(
        (ln1): LayerNorm((768,), eps=1e-06, elementwise_affine=True)
        (attn): MultiheadAttention(
          (attn): MultiheadAttention(
            (out_proj): NonDynamicallyQuantizableLinear(in_features=768, out_features=768, bias=True)
          )
          (proj_drop): Dropout(p=0.0, inplace=False)
          (dropout_layer): Dropout(p=0.0, inplace=False)
        )
        (ln2): LayerNorm((768,), eps=1e-06, elementwise_affine=True)
        (ffn): FFN(
          (activate): GELU(approximate='none')
          (layers): Sequential(
            (0): Sequential(
              (0): Linear(in_features=768, out_features=3072, bias=True)
              (1): GELU(approximate='none')
              (2): Dropout(p=0.0, inplace=False)
            )
            (1): Linear(in_features=3072, out_features=768, bias=True)
            (2): Dropout(p=0.0, inplace=False)
          )
          (dropout_layer): DropPath()
        )
      )
      (6): TransformerEncoderLayer(
        (ln1): LayerNorm((768,), eps=1e-06, elementwise_affine=True)
        (attn): MultiheadAttention(
          (attn): MultiheadAttention(
            (out_proj): NonDynamicallyQuantizableLinear(in_features=768, out_features=768, bias=True)
          )
          (proj_drop): Dropout(p=0.0, inplace=False)
          (dropout_layer): Dropout(p=0.0, inplace=False)
        )
        (ln2): LayerNorm((768,), eps=1e-06, elementwise_affine=True)
        (ffn): FFN(
          (activate): GELU(approximate='none')
          (layers): Sequential(
            (0): Sequential(
              (0): Linear(in_features=768, out_features=3072, bias=True)
              (1): GELU(approximate='none')
              (2): Dropout(p=0.0, inplace=False)
            )
            (1): Linear(in_features=3072, out_features=768, bias=True)
            (2): Dropout(p=0.0, inplace=False)
          )
          (dropout_layer): DropPath()
        )
      )
      (7): TransformerEncoderLayer(
        (ln1): LayerNorm((768,), eps=1e-06, elementwise_affine=True)
        (attn): MultiheadAttention(
          (attn): MultiheadAttention(
            (out_proj): NonDynamicallyQuantizableLinear(in_features=768, out_features=768, bias=True)
          )
          (proj_drop): Dropout(p=0.0, inplace=False)
          (dropout_layer): Dropout(p=0.0, inplace=False)
        )
        (ln2): LayerNorm((768,), eps=1e-06, elementwise_affine=True)
        (ffn): FFN(
          (activate): GELU(approximate='none')
          (layers): Sequential(
            (0): Sequential(
              (0): Linear(in_features=768, out_features=3072, bias=True)
              (1): GELU(approximate='none')
              (2): Dropout(p=0.0, inplace=False)
            )
            (1): Linear(in_features=3072, out_features=768, bias=True)
            (2): Dropout(p=0.0, inplace=False)
          )
          (dropout_layer): DropPath()
        )
      )
      (8): TransformerEncoderLayer(
        (ln1): LayerNorm((768,), eps=1e-06, elementwise_affine=True)
        (attn): MultiheadAttention(
          (attn): MultiheadAttention(
            (out_proj): NonDynamicallyQuantizableLinear(in_features=768, out_features=768, bias=True)
          )
          (proj_drop): Dropout(p=0.0, inplace=False)
          (dropout_layer): Dropout(p=0.0, inplace=False)
        )
        (ln2): LayerNorm((768,), eps=1e-06, elementwise_affine=True)
        (ffn): FFN(
          (activate): GELU(approximate='none')
          (layers): Sequential(
            (0): Sequential(
              (0): Linear(in_features=768, out_features=3072, bias=True)
              (1): GELU(approximate='none')
              (2): Dropout(p=0.0, inplace=False)
            )
            (1): Linear(in_features=3072, out_features=768, bias=True)
            (2): Dropout(p=0.0, inplace=False)
          )
          (dropout_layer): DropPath()
        )
      )
      (9): TransformerEncoderLayer(
        (ln1): LayerNorm((768,), eps=1e-06, elementwise_affine=True)
        (attn): MultiheadAttention(
          (attn): MultiheadAttention(
            (out_proj): NonDynamicallyQuantizableLinear(in_features=768, out_features=768, bias=True)
          )
          (proj_drop): Dropout(p=0.0, inplace=False)
          (dropout_layer): Dropout(p=0.0, inplace=False)
        )
        (ln2): LayerNorm((768,), eps=1e-06, elementwise_affine=True)
        (ffn): FFN(
          (activate): GELU(approximate='none')
          (layers): Sequential(
            (0): Sequential(
              (0): Linear(in_features=768, out_features=3072, bias=True)
              (1): GELU(approximate='none')
              (2): Dropout(p=0.0, inplace=False)
            )
            (1): Linear(in_features=3072, out_features=768, bias=True)
            (2): Dropout(p=0.0, inplace=False)
          )
          (dropout_layer): DropPath()
        )
      )
      (10): TransformerEncoderLayer(
        (ln1): LayerNorm((768,), eps=1e-06, elementwise_affine=True)
        (attn): MultiheadAttention(
          (attn): MultiheadAttention(
            (out_proj): NonDynamicallyQuantizableLinear(in_features=768, out_features=768, bias=True)
          )
          (proj_drop): Dropout(p=0.0, inplace=False)
          (dropout_layer): Dropout(p=0.0, inplace=False)
        )
        (ln2): LayerNorm((768,), eps=1e-06, elementwise_affine=True)
        (ffn): FFN(
          (activate): GELU(approximate='none')
          (layers): Sequential(
            (0): Sequential(
              (0): Linear(in_features=768, out_features=3072, bias=True)
              (1): GELU(approximate='none')
              (2): Dropout(p=0.0, inplace=False)
            )
            (1): Linear(in_features=3072, out_features=768, bias=True)
            (2): Dropout(p=0.0, inplace=False)
          )
          (dropout_layer): DropPath()
        )
      )
      (11): TransformerEncoderLayer(
        (ln1): LayerNorm((768,), eps=1e-06, elementwise_affine=True)
        (attn): MultiheadAttention(
          (attn): MultiheadAttention(
            (out_proj): NonDynamicallyQuantizableLinear(in_features=768, out_features=768, bias=True)
          )
          (proj_drop): Dropout(p=0.0, inplace=False)
          (dropout_layer): Dropout(p=0.0, inplace=False)
        )
        (ln2): LayerNorm((768,), eps=1e-06, elementwise_affine=True)
        (ffn): FFN(
          (activate): GELU(approximate='none')
          (layers): Sequential(
            (0): Sequential(
              (0): Linear(in_features=768, out_features=3072, bias=True)
              (1): GELU(approximate='none')
              (2): Dropout(p=0.0, inplace=False)
            )
            (1): Linear(in_features=3072, out_features=768, bias=True)
            (2): Dropout(p=0.0, inplace=False)
          )
          (dropout_layer): DropPath()
        )
      )
    )
  )
  init_cfg={'type': 'Pretrained', 'checkpoint': ''}
  (decode_head): ATMHead(
    input_transform=None, ignore_index=0, align_corners=False
    (loss_decode): CrossEntropyLoss(avg_non_ignore=True)
    (dropout): Dropout2d(p=0.1, inplace=False)
    (input_proj_1): Linear(in_features=768, out_features=384, bias=True)
    (proj_norm_1): LayerNorm((384,), eps=1e-05, elementwise_affine=True)
    (decoder_1): TPN_Decoder(
      (layers): ModuleList(
        (0): TPN_DecoderLayer(
          (self_attn): MultiheadAttention(
            (out_proj): NonDynamicallyQuantizableLinear(in_features=384, out_features=384, bias=True)
          )
          (linear1): Linear(in_features=384, out_features=1536, bias=True)
          (dropout): Dropout(p=0.1, inplace=False)
          (linear2): Linear(in_features=1536, out_features=384, bias=True)
          (norm1): LayerNorm((384,), eps=1e-05, elementwise_affine=True)
          (norm2): LayerNorm((384,), eps=1e-05, elementwise_affine=True)
          (norm3): LayerNorm((384,), eps=1e-05, elementwise_affine=True)
          (dropout1): Dropout(p=0.1, inplace=False)
          (dropout2): Dropout(p=0.1, inplace=False)
          (dropout3): Dropout(p=0.1, inplace=False)
          (multihead_attn): Attention(
            (q): Linear(in_features=384, out_features=384, bias=True)
            (k): Linear(in_features=384, out_features=384, bias=True)
            (v): Linear(in_features=384, out_features=384, bias=True)
            (attn_drop): Dropout(p=0.1, inplace=False)
            (proj): Linear(in_features=384, out_features=384, bias=True)
            (proj_drop): Dropout(p=0.0, inplace=False)
          )
        )
        (1): TPN_DecoderLayer(
          (self_attn): MultiheadAttention(
            (out_proj): NonDynamicallyQuantizableLinear(in_features=384, out_features=384, bias=True)
          )
          (linear1): Linear(in_features=384, out_features=1536, bias=True)
          (dropout): Dropout(p=0.1, inplace=False)
          (linear2): Linear(in_features=1536, out_features=384, bias=True)
          (norm1): LayerNorm((384,), eps=1e-05, elementwise_affine=True)
          (norm2): LayerNorm((384,), eps=1e-05, elementwise_affine=True)
          (norm3): LayerNorm((384,), eps=1e-05, elementwise_affine=True)
          (dropout1): Dropout(p=0.1, inplace=False)
          (dropout2): Dropout(p=0.1, inplace=False)
          (dropout3): Dropout(p=0.1, inplace=False)
          (multihead_attn): Attention(
            (q): Linear(in_features=384, out_features=384, bias=True)
            (k): Linear(in_features=384, out_features=384, bias=True)
            (v): Linear(in_features=384, out_features=384, bias=True)
            (attn_drop): Dropout(p=0.1, inplace=False)
            (proj): Linear(in_features=384, out_features=384, bias=True)
            (proj_drop): Dropout(p=0.0, inplace=False)
          )
        )
        (2): TPN_DecoderLayer(
          (self_attn): MultiheadAttention(
            (out_proj): NonDynamicallyQuantizableLinear(in_features=384, out_features=384, bias=True)
          )
          (linear1): Linear(in_features=384, out_features=1536, bias=True)
          (dropout): Dropout(p=0.1, inplace=False)
          (linear2): Linear(in_features=1536, out_features=384, bias=True)
          (norm1): LayerNorm((384,), eps=1e-05, elementwise_affine=True)
          (norm2): LayerNorm((384,), eps=1e-05, elementwise_affine=True)
          (norm3): LayerNorm((384,), eps=1e-05, elementwise_affine=True)
          (dropout1): Dropout(p=0.1, inplace=False)
          (dropout2): Dropout(p=0.1, inplace=False)
          (dropout3): Dropout(p=0.1, inplace=False)
          (multihead_attn): Attention(
            (q): Linear(in_features=384, out_features=384, bias=True)
            (k): Linear(in_features=384, out_features=384, bias=True)
            (v): Linear(in_features=384, out_features=384, bias=True)
            (attn_drop): Dropout(p=0.1, inplace=False)
            (proj): Linear(in_features=384, out_features=384, bias=True)
            (proj_drop): Dropout(p=0.0, inplace=False)
          )
        )
      )
    )
    (input_proj_2): Linear(in_features=768, out_features=384, bias=True)
    (proj_norm_2): LayerNorm((384,), eps=1e-05, elementwise_affine=True)
    (decoder_2): TPN_Decoder(
      (layers): ModuleList(
        (0): TPN_DecoderLayer(
          (self_attn): MultiheadAttention(
            (out_proj): NonDynamicallyQuantizableLinear(in_features=384, out_features=384, bias=True)
          )
          (linear1): Linear(in_features=384, out_features=1536, bias=True)
          (dropout): Dropout(p=0.1, inplace=False)
          (linear2): Linear(in_features=1536, out_features=384, bias=True)
          (norm1): LayerNorm((384,), eps=1e-05, elementwise_affine=True)
          (norm2): LayerNorm((384,), eps=1e-05, elementwise_affine=True)
          (norm3): LayerNorm((384,), eps=1e-05, elementwise_affine=True)
          (dropout1): Dropout(p=0.1, inplace=False)
          (dropout2): Dropout(p=0.1, inplace=False)
          (dropout3): Dropout(p=0.1, inplace=False)
          (multihead_attn): Attention(
            (q): Linear(in_features=384, out_features=384, bias=True)
            (k): Linear(in_features=384, out_features=384, bias=True)
            (v): Linear(in_features=384, out_features=384, bias=True)
            (attn_drop): Dropout(p=0.1, inplace=False)
            (proj): Linear(in_features=384, out_features=384, bias=True)
            (proj_drop): Dropout(p=0.0, inplace=False)
          )
        )
        (1): TPN_DecoderLayer(
          (self_attn): MultiheadAttention(
            (out_proj): NonDynamicallyQuantizableLinear(in_features=384, out_features=384, bias=True)
          )
          (linear1): Linear(in_features=384, out_features=1536, bias=True)
          (dropout): Dropout(p=0.1, inplace=False)
          (linear2): Linear(in_features=1536, out_features=384, bias=True)
          (norm1): LayerNorm((384,), eps=1e-05, elementwise_affine=True)
          (norm2): LayerNorm((384,), eps=1e-05, elementwise_affine=True)
          (norm3): LayerNorm((384,), eps=1e-05, elementwise_affine=True)
          (dropout1): Dropout(p=0.1, inplace=False)
          (dropout2): Dropout(p=0.1, inplace=False)
          (dropout3): Dropout(p=0.1, inplace=False)
          (multihead_attn): Attention(
            (q): Linear(in_features=384, out_features=384, bias=True)
            (k): Linear(in_features=384, out_features=384, bias=True)
            (v): Linear(in_features=384, out_features=384, bias=True)
            (attn_drop): Dropout(p=0.1, inplace=False)
            (proj): Linear(in_features=384, out_features=384, bias=True)
            (proj_drop): Dropout(p=0.0, inplace=False)
          )
        )
        (2): TPN_DecoderLayer(
          (self_attn): MultiheadAttention(
            (out_proj): NonDynamicallyQuantizableLinear(in_features=384, out_features=384, bias=True)
          )
          (linear1): Linear(in_features=384, out_features=1536, bias=True)
          (dropout): Dropout(p=0.1, inplace=False)
          (linear2): Linear(in_features=1536, out_features=384, bias=True)
          (norm1): LayerNorm((384,), eps=1e-05, elementwise_affine=True)
          (norm2): LayerNorm((384,), eps=1e-05, elementwise_affine=True)
          (norm3): LayerNorm((384,), eps=1e-05, elementwise_affine=True)
          (dropout1): Dropout(p=0.1, inplace=False)
          (dropout2): Dropout(p=0.1, inplace=False)
          (dropout3): Dropout(p=0.1, inplace=False)
          (multihead_attn): Attention(
            (q): Linear(in_features=384, out_features=384, bias=True)
            (k): Linear(in_features=384, out_features=384, bias=True)
            (v): Linear(in_features=384, out_features=384, bias=True)
            (attn_drop): Dropout(p=0.1, inplace=False)
            (proj): Linear(in_features=384, out_features=384, bias=True)
            (proj_drop): Dropout(p=0.0, inplace=False)
          )
        )
      )
    )
    (input_proj_3): Linear(in_features=768, out_features=384, bias=True)
    (proj_norm_3): LayerNorm((384,), eps=1e-05, elementwise_affine=True)
    (decoder_3): TPN_Decoder(
      (layers): ModuleList(
        (0): TPN_DecoderLayer(
          (self_attn): MultiheadAttention(
            (out_proj): NonDynamicallyQuantizableLinear(in_features=384, out_features=384, bias=True)
          )
          (linear1): Linear(in_features=384, out_features=1536, bias=True)
          (dropout): Dropout(p=0.1, inplace=False)
          (linear2): Linear(in_features=1536, out_features=384, bias=True)
          (norm1): LayerNorm((384,), eps=1e-05, elementwise_affine=True)
          (norm2): LayerNorm((384,), eps=1e-05, elementwise_affine=True)
          (norm3): LayerNorm((384,), eps=1e-05, elementwise_affine=True)
          (dropout1): Dropout(p=0.1, inplace=False)
          (dropout2): Dropout(p=0.1, inplace=False)
          (dropout3): Dropout(p=0.1, inplace=False)
          (multihead_attn): Attention(
            (q): Linear(in_features=384, out_features=384, bias=True)
            (k): Linear(in_features=384, out_features=384, bias=True)
            (v): Linear(in_features=384, out_features=384, bias=True)
            (attn_drop): Dropout(p=0.1, inplace=False)
            (proj): Linear(in_features=384, out_features=384, bias=True)
            (proj_drop): Dropout(p=0.0, inplace=False)
          )
        )
        (1): TPN_DecoderLayer(
          (self_attn): MultiheadAttention(
            (out_proj): NonDynamicallyQuantizableLinear(in_features=384, out_features=384, bias=True)
          )
          (linear1): Linear(in_features=384, out_features=1536, bias=True)
          (dropout): Dropout(p=0.1, inplace=False)
          (linear2): Linear(in_features=1536, out_features=384, bias=True)
          (norm1): LayerNorm((384,), eps=1e-05, elementwise_affine=True)
          (norm2): LayerNorm((384,), eps=1e-05, elementwise_affine=True)
          (norm3): LayerNorm((384,), eps=1e-05, elementwise_affine=True)
          (dropout1): Dropout(p=0.1, inplace=False)
          (dropout2): Dropout(p=0.1, inplace=False)
          (dropout3): Dropout(p=0.1, inplace=False)
          (multihead_attn): Attention(
            (q): Linear(in_features=384, out_features=384, bias=True)
            (k): Linear(in_features=384, out_features=384, bias=True)
            (v): Linear(in_features=384, out_features=384, bias=True)
            (attn_drop): Dropout(p=0.1, inplace=False)
            (proj): Linear(in_features=384, out_features=384, bias=True)
            (proj_drop): Dropout(p=0.0, inplace=False)
          )
        )
        (2): TPN_DecoderLayer(
          (self_attn): MultiheadAttention(
            (out_proj): NonDynamicallyQuantizableLinear(in_features=384, out_features=384, bias=True)
          )
          (linear1): Linear(in_features=384, out_features=1536, bias=True)
          (dropout): Dropout(p=0.1, inplace=False)
          (linear2): Linear(in_features=1536, out_features=384, bias=True)
          (norm1): LayerNorm((384,), eps=1e-05, elementwise_affine=True)
          (norm2): LayerNorm((384,), eps=1e-05, elementwise_affine=True)
          (norm3): LayerNorm((384,), eps=1e-05, elementwise_affine=True)
          (dropout1): Dropout(p=0.1, inplace=False)
          (dropout2): Dropout(p=0.1, inplace=False)
          (dropout3): Dropout(p=0.1, inplace=False)
          (multihead_attn): Attention(
            (q): Linear(in_features=384, out_features=384, bias=True)
            (k): Linear(in_features=384, out_features=384, bias=True)
            (v): Linear(in_features=384, out_features=384, bias=True)
            (attn_drop): Dropout(p=0.1, inplace=False)
            (proj): Linear(in_features=384, out_features=384, bias=True)
            (proj_drop): Dropout(p=0.0, inplace=False)
          )
        )
      )
    )
    (q): Embedding(2, 384)
    (class_embed): Linear(in_features=384, out_features=3, bias=True)
  )
  init_cfg={'type': 'Normal', 'std': 0.01, 'override': {'name': 'conv_seg'}}
)
optimzier ccfg {'type': 'AdamW', 'lr': 0.003, 'betas': (0.9, 0.999), 'weight_decay': 0.01}
ct type DefaultOptimizerConstructor
2023-03-09 01:51:22,692 - mmseg - INFO - Iter [50/320000]	lr: 9.799e-05, eta: 1 day, 7:57:57, time: 0.360, data_time: 0.015, memory: 4333, decode.loss_ce: 0.3810, loss: 0.3810, grad_norm: 0.3500
…
