…
(LOW         ) IterTimerHook                      
 -------------------- 
after_val_epoch:
(VERY_LOW    ) TextLoggerHook                     
 -------------------- 
after_run:
(VERY_LOW    ) TextLoggerHook                     
 -------------------- 
2023-03-09 16:03:43,394 - mmseg - INFO - workflow: [('train', 1)], max: 320000 iters
2023-03-09 16:03:43,394 - mmseg - INFO - Checkpoints will be saved to /cta/users/emir/dev/ViT_Segmentation/segmenter_vit/output by HardDiskBackend.
cuda
EncoderDecoder(
  (backbone): VisionTransformer(
    (patch_embed): PatchEmbed(
      (adap_padding): AdaptivePadding()
      (projection): Conv2d(3, 768, kernel_size=(16, 16), stride=(16, 16))
    )
    (drop_after_pos): Dropout(p=0.0, inplace=False)
    (layers): ModuleList(
      (0): TransformerEncoderLayer(
        (ln1): LayerNorm((768,), eps=1e-06, elementwise_affine=True)
        (attn): MultiheadAttention(
          (attn): MultiheadAttention(
            (out_proj): NonDynamicallyQuantizableLinear(in_features=768, out_features=768, bias=True)
          )
          (proj_drop): Dropout(p=0.0, inplace=False)
          (dropout_layer): Dropout(p=0.0, inplace=False)
        )
        (ln2): LayerNorm((768,), eps=1e-06, elementwise_affine=True)
        (ffn): FFN(
          (activate): GELU(approximate='none')
          (layers): Sequential(
            (0): Sequential(
              (0): Linear(in_features=768, out_features=3072, bias=True)
              (1): GELU(approximate='none')
              (2): Dropout(p=0.0, inplace=False)
            )
            (1): Linear(in_features=3072, out_features=768, bias=True)
            (2): Dropout(p=0.0, inplace=False)
          )
          (dropout_layer): Identity()
        )
      )
      (1): TransformerEncoderLayer(
        (ln1): LayerNorm((768,), eps=1e-06, elementwise_affine=True)
        (attn): MultiheadAttention(
          (attn): MultiheadAttention(
            (out_proj): NonDynamicallyQuantizableLinear(in_features=768, out_features=768, bias=True)
          )
          (proj_drop): Dropout(p=0.0, inplace=False)
          (dropout_layer): Dropout(p=0.0, inplace=False)
        )
        (ln2): LayerNorm((768,), eps=1e-06, elementwise_affine=True)
        (ffn): FFN(
          (activate): GELU(approximate='none')
          (layers): Sequential(
            (0): Sequential(
              (0): Linear(in_features=768, out_features=3072, bias=True)
              (1): GELU(approximate='none')
              (2): Dropout(p=0.0, inplace=False)
            )
            (1): Linear(in_features=3072, out_features=768, bias=True)
            (2): Dropout(p=0.0, inplace=False)
          )
          (dropout_layer): DropPath()
        )
      )
      (2): TransformerEncoderLayer(
        (ln1): LayerNorm((768,), eps=1e-06, elementwise_affine=True)
        (attn): MultiheadAttention(
          (attn): MultiheadAttention(
            (out_proj): NonDynamicallyQuantizableLinear(in_features=768, out_features=768, bias=True)
          )
          (proj_drop): Dropout(p=0.0, inplace=False)
          (dropout_layer): Dropout(p=0.0, inplace=False)
        )
        (ln2): LayerNorm((768,), eps=1e-06, elementwise_affine=True)
        (ffn): FFN(
          (activate): GELU(approximate='none')
          (layers): Sequential(
            (0): Sequential(
              (0): Linear(in_features=768, out_features=3072, bias=True)
              (1): GELU(approximate='none')
              (2): Dropout(p=0.0, inplace=False)
            )
            (1): Linear(in_features=3072, out_features=768, bias=True)
            (2): Dropout(p=0.0, inplace=False)
          )
          (dropout_layer): DropPath()
        )
      )
      (3): TransformerEncoderLayer(
        (ln1): LayerNorm((768,), eps=1e-06, elementwise_affine=True)
        (attn): MultiheadAttention(
          (attn): MultiheadAttention(
            (out_proj): NonDynamicallyQuantizableLinear(in_features=768, out_features=768, bias=True)
          )
          (proj_drop): Dropout(p=0.0, inplace=False)
          (dropout_layer): Dropout(p=0.0, inplace=False)
        )
        (ln2): LayerNorm((768,), eps=1e-06, elementwise_affine=True)
        (ffn): FFN(
          (activate): GELU(approximate='none')
          (layers): Sequential(
            (0): Sequential(
              (0): Linear(in_features=768, out_features=3072, bias=True)
              (1): GELU(approximate='none')
              (2): Dropout(p=0.0, inplace=False)
            )
            (1): Linear(in_features=3072, out_features=768, bias=True)
            (2): Dropout(p=0.0, inplace=False)
          )
          (dropout_layer): DropPath()
        )
      )
      (4): TransformerEncoderLayer(
        (ln1): LayerNorm((768,), eps=1e-06, elementwise_affine=True)
        (attn): MultiheadAttention(
          (attn): MultiheadAttention(
            (out_proj): NonDynamicallyQuantizableLinear(in_features=768, out_features=768, bias=True)
          )
          (proj_drop): Dropout(p=0.0, inplace=False)
          (dropout_layer): Dropout(p=0.0, inplace=False)
        )
        (ln2): LayerNorm((768,), eps=1e-06, elementwise_affine=True)
        (ffn): FFN(
          (activate): GELU(approximate='none')
          (layers): Sequential(
            (0): Sequential(
              (0): Linear(in_features=768, out_features=3072, bias=True)
              (1): GELU(approximate='none')
              (2): Dropout(p=0.0, inplace=False)
            )
            (1): Linear(in_features=3072, out_features=768, bias=True)
            (2): Dropout(p=0.0, inplace=False)
          )
          (dropout_layer): DropPath()
        )
      )
      (5): TransformerEncoderLayer(
        (ln1): LayerNorm((768,), eps=1e-06, elementwise_affine=True)
        (attn): MultiheadAttention(
          (attn): MultiheadAttention(
            (out_proj): NonDynamicallyQuantizableLinear(in_features=768, out_features=768, bias=True)
          )
          (proj_drop): Dropout(p=0.0, inplace=False)
          (dropout_layer): Dropout(p=0.0, inplace=False)
        )
        (ln2): LayerNorm((768,), eps=1e-06, elementwise_affine=True)
        (ffn): FFN(
          (activate): GELU(approximate='none')
          (layers): Sequential(
            (0): Sequential(
              (0): Linear(in_features=768, out_features=3072, bias=True)
              (1): GELU(approximate='none')
              (2): Dropout(p=0.0, inplace=False)
            )
            (1): Linear(in_features=3072, out_features=768, bias=True)
            (2): Dropout(p=0.0, inplace=False)
          )
          (dropout_layer): DropPath()
        )
      )
      (6): TransformerEncoderLayer(
        (ln1): LayerNorm((768,), eps=1e-06, elementwise_affine=True)
        (attn): MultiheadAttention(
          (attn): MultiheadAttention(
            (out_proj): NonDynamicallyQuantizableLinear(in_features=768, out_features=768, bias=True)
          )
          (proj_drop): Dropout(p=0.0, inplace=False)
          (dropout_layer): Dropout(p=0.0, inplace=False)
        )
        (ln2): LayerNorm((768,), eps=1e-06, elementwise_affine=True)
        (ffn): FFN(
          (activate): GELU(approximate='none')
          (layers): Sequential(
            (0): Sequential(
              (0): Linear(in_features=768, out_features=3072, bias=True)
              (1): GELU(approximate='none')
              (2): Dropout(p=0.0, inplace=False)
            )
            (1): Linear(in_features=3072, out_features=768, bias=True)
            (2): Dropout(p=0.0, inplace=False)
          )
          (dropout_layer): DropPath()
        )
      )
      (7): TransformerEncoderLayer(
        (ln1): LayerNorm((768,), eps=1e-06, elementwise_affine=True)
        (attn): MultiheadAttention(
          (attn): MultiheadAttention(
            (out_proj): NonDynamicallyQuantizableLinear(in_features=768, out_features=768, bias=True)
          )
          (proj_drop): Dropout(p=0.0, inplace=False)
          (dropout_layer): Dropout(p=0.0, inplace=False)
        )
        (ln2): LayerNorm((768,), eps=1e-06, elementwise_affine=True)
        (ffn): FFN(
          (activate): GELU(approximate='none')
          (layers): Sequential(
            (0): Sequential(
              (0): Linear(in_features=768, out_features=3072, bias=True)
              (1): GELU(approximate='none')
              (2): Dropout(p=0.0, inplace=False)
            )
            (1): Linear(in_features=3072, out_features=768, bias=True)
            (2): Dropout(p=0.0, inplace=False)
          )
          (dropout_layer): DropPath()
        )
      )
      (8): TransformerEncoderLayer(
        (ln1): LayerNorm((768,), eps=1e-06, elementwise_affine=True)
        (attn): MultiheadAttention(
          (attn): MultiheadAttention(
            (out_proj): NonDynamicallyQuantizableLinear(in_features=768, out_features=768, bias=True)
          )
          (proj_drop): Dropout(p=0.0, inplace=False)
          (dropout_layer): Dropout(p=0.0, inplace=False)
        )
        (ln2): LayerNorm((768,), eps=1e-06, elementwise_affine=True)
        (ffn): FFN(
          (activate): GELU(approximate='none')
          (layers): Sequential(
            (0): Sequential(
              (0): Linear(in_features=768, out_features=3072, bias=True)
              (1): GELU(approximate='none')
              (2): Dropout(p=0.0, inplace=False)
            )
            (1): Linear(in_features=3072, out_features=768, bias=True)
            (2): Dropout(p=0.0, inplace=False)
          )
          (dropout_layer): DropPath()
        )
      )
      (9): TransformerEncoderLayer(
        (ln1): LayerNorm((768,), eps=1e-06, elementwise_affine=True)
        (attn): MultiheadAttention(
          (attn): MultiheadAttention(
            (out_proj): NonDynamicallyQuantizableLinear(in_features=768, out_features=768, bias=True)
          )
          (proj_drop): Dropout(p=0.0, inplace=False)
          (dropout_layer): Dropout(p=0.0, inplace=False)
        )
        (ln2): LayerNorm((768,), eps=1e-06, elementwise_affine=True)
        (ffn): FFN(
          (activate): GELU(approximate='none')
          (layers): Sequential(
            (0): Sequential(
              (0): Linear(in_features=768, out_features=3072, bias=True)
              (1): GELU(approximate='none')
              (2): Dropout(p=0.0, inplace=False)
            )
            (1): Linear(in_features=3072, out_features=768, bias=True)
            (2): Dropout(p=0.0, inplace=False)
          )
          (dropout_layer): DropPath()
        )
      )
      (10): TransformerEncoderLayer(
        (ln1): LayerNorm((768,), eps=1e-06, elementwise_affine=True)
        (attn): MultiheadAttention(
          (attn): MultiheadAttention(
            (out_proj): NonDynamicallyQuantizableLinear(in_features=768, out_features=768, bias=True)
          )
          (proj_drop): Dropout(p=0.0, inplace=False)
          (dropout_layer): Dropout(p=0.0, inplace=False)
        )
        (ln2): LayerNorm((768,), eps=1e-06, elementwise_affine=True)
        (ffn): FFN(
          (activate): GELU(approximate='none')
          (layers): Sequential(
            (0): Sequential(
              (0): Linear(in_features=768, out_features=3072, bias=True)
              (1): GELU(approximate='none')
              (2): Dropout(p=0.0, inplace=False)
            )
            (1): Linear(in_features=3072, out_features=768, bias=True)
            (2): Dropout(p=0.0, inplace=False)
          )
          (dropout_layer): DropPath()
        )
      )
      (11): TransformerEncoderLayer(
        (ln1): LayerNorm((768,), eps=1e-06, elementwise_affine=True)
        (attn): MultiheadAttention(
          (attn): MultiheadAttention(
            (out_proj): NonDynamicallyQuantizableLinear(in_features=768, out_features=768, bias=True)
          )
          (proj_drop): Dropout(p=0.0, inplace=False)
          (dropout_layer): Dropout(p=0.0, inplace=False)
        )
        (ln2): LayerNorm((768,), eps=1e-06, elementwise_affine=True)
        (ffn): FFN(
          (activate): GELU(approximate='none')
          (layers): Sequential(
            (0): Sequential(
              (0): Linear(in_features=768, out_features=3072, bias=True)
              (1): GELU(approximate='none')
              (2): Dropout(p=0.0, inplace=False)
            )
            (1): Linear(in_features=3072, out_features=768, bias=True)
            (2): Dropout(p=0.0, inplace=False)
          )
          (dropout_layer): DropPath()
        )
      )
    )
    (ln1): LayerNorm((768,), eps=1e-06, elementwise_affine=True)
  )
  (decode_head): SegmenterMaskTransformerHead(
    input_transform=None, ignore_index=255, align_corners=False
    (loss_decode): CrossEntropyLoss(avg_non_ignore=True)
    (layers): ModuleList(
      (0): TransformerEncoderLayer(
        (ln1): LayerNorm((768,), eps=1e-05, elementwise_affine=True)
        (attn): MultiheadAttention(
          (attn): MultiheadAttention(
            (out_proj): NonDynamicallyQuantizableLinear(in_features=768, out_features=768, bias=True)
          )
          (proj_drop): Dropout(p=0.0, inplace=False)
          (dropout_layer): Dropout(p=0.0, inplace=False)
        )
        (ln2): LayerNorm((768,), eps=1e-05, elementwise_affine=True)
        (ffn): FFN(
          (activate): GELU(approximate='none')
          (layers): Sequential(
            (0): Sequential(
              (0): Linear(in_features=768, out_features=3072, bias=True)
              (1): GELU(approximate='none')
              (2): Dropout(p=0.0, inplace=False)
            )
            (1): Linear(in_features=3072, out_features=768, bias=True)
            (2): Dropout(p=0.0, inplace=False)
          )
          (dropout_layer): Identity()
        )
      )
    )
    (dec_proj): Linear(in_features=768, out_features=768, bias=True)
    (patch_proj): Linear(in_features=768, out_features=768, bias=False)
    (classes_proj): Linear(in_features=768, out_features=768, bias=False)
    (decoder_norm): LayerNorm((768,), eps=1e-05, elementwise_affine=True)
    (mask_norm): LayerNorm((2,), eps=1e-05, elementwise_affine=True)
  )
  init_cfg={'type': 'Normal', 'std': 0.01, 'override': {'name': 'conv_seg'}}
)
0.30.0
Traceback (most recent call last):
  File "/cta/users/emir/dev/ViT_Segmentation/segmenter_vit/main.py", line 45, in <module>
    train_segmentor(model=model, dataset=datasets, cfg=cfg, validate=False)
  File "/cta/users/emir/dev/ViT_Segmentation/mmsegmentation/mmseg/apis/train.py", line 194, in train_segmentor
…
